Module_6/Week-1/model/model.pt (torch, 252892 bytes, 10 tensors)

weight f4 [6, 1, 5, 5]
00000000: e156 04be 9941 673e e071 54bd b51a ee3d
00000010: 29da 263c 84bb 6b3d 8bef 253d 9f09 c53c
00000020: f58e 383e 85f6 c5bd a450 2f3d aa28 fb3d
00000030: 872d e9bd 91ef d8bd ee90 893d f8c9 643e
00000040: 35d9 f73c ab5c 3c3e a0ba ed3d 37fb 433d
00000050: 315b b5bd fab0 9f3d 21c3 853c 5258 263e
00000060: c170 2fbe 7503 a03d 8a98 a1bd 29a3 4b3d
00000070: 2e71 383d 10f0 98be 9f93 a13b a071 a5bd
00000080: fda6 783c aeae 9fbe c200 583b dc16 81bd
00000090: bd72 f3bd 77d0 4fbe b29d 96bd 6f96 b3bd
000000a0: ef67 55bd 4d74 80be c16f 803d 1241 0b3c
000000b0: cfa1 613d a1fe 9dbe e645 90bd ac5c af3c
000000c0: bf22 fe3d c2c0 753e 2191 58be 355a 863d
000000d0: 5350 72be f9c8 6ebe afe4 9dbc b00f 3d3c
000000e0: 33cd 5abd 6c75 40bd 0b59 a8be f9e8 c4bd
000000f0: b704 313d 0cc8 13bc 3822 61bd 116f 17be
00000100: a8c3 96bd bbf4 963e efd9 3a3e 9fe4 933e
00000110: b9c3 8f3e 323d 893e 2e37 3dbe 5813 103e
00000120: 35eb fe3d 4eea 7d3d 8b76 93bd 48bc 223e
00000130: b625 ed3d 8301 513e daf8 c13e 858d 8e3e
00000140: 0f2c d9bd 306c 2abe 9acd 0ebe e97e 49be
00000150: 3fd2 16be 819a 3cbe a6e6 89be f290 2cbe
00000160: bfd8 6dbe b4fc 79bd b4e4 d4bd 1013 6e3d
00000170: 8efc 33be 55af 68bd 4806 4bbe c46f 893e
00000180: cc13 a33e 7eff d93d 8110 913e dac4 863d
00000190: 5b4f 9fbd ce4d 7bbe 3ebe 13be 1814 bdbd
000001a0: 500f 8fbc e98e 92be 8cee 47be 7cb8 763d
000001b0: c2bc 093e 39af f73d fb19 58bd a976 04be
000001c0: 51f6 b53d 5250 083e 537e 223e a3ba a9be
000001d0: 01de cbbd 94cf e33d a5d2 d13d 9e4e f13d
000001e0: e611 e3bd d2e0 d5bc 24c6 573e 6bc3 7b3e
000001f0: 9070 143e 7066 443d ae28 1c3e 9c99 ed3d
00000200: 84d2 bc3d d2ec 803e 53bd 0a3e 8e2a e73d
00000210: 5f39 043d 2a5f f93c 5bed 5e3e b19f 743e
00000220: f088 20bd 7ba9 e7bd 72cb 543d feb6 573e
00000230: 24f0 b93d b339 10bd 2649 12be b355 09be
00000240: 6c9a 36be 3f84 3c3d 05b4 8cbd 615e 1abd
00000250: 65d7 ed3c 6065 59be
-0.12923767 0.22583617 -0.051866412 0.11626188 0.010183849 0.057551876 0.04051165 0.02405244
0.18023284 -0.096661605 0.042801514 0.122636154 -0.11385637 -0.10592569 0.06717096 0.2234267
0.03025494 0.18394725 0.116078615 0.047847 -0.08855284 0.077974275 0.016328396 0.16244629
-0.17132856 0.078131594 -0.07890423 0.04971615 0.04502981 -0.29870653 0.004930928 -0.08078313
0.015176532 -0.31187958 0.0032959436 -0.06303188 -0.11887119 -0.20294367 -0.07354297 -0.08768927
-0.052101072 -0.2508873 0.06271315 0.008499401 0.055085953 -0.3085833 -0.07044582 0.021406494
0.12408971 0.23999313 -0.21149112 0.065601744 -0.23663454 -0.23318852 -0.019274084 0.011539385
-0.05341835 -0.046986982 -0.32880434 -0.096147485 0.043217387 -0.009019863 -0.054964274 -0.14788462
-0.07361537 0.2948359 0.18247198 0.28885362 0.28079012 0.268045 -0.1847808 0.14069879
0.12447206 0.06199103 -0.07200345 0.15892136 0.115794584 0.20410733 0.3788517 0.27842346
-0.10604107 -0.16642833 -0.13945618 -0.19677319 -0.1472864 -0.18418314 -0.26933783 -0.16852167
-0.23227213 -0.061032012 -0.10395184 0.05812365 -0.1757681 -0.056807835 -0.19826615 0.26843083
0.3185104 0.106444344 0.28332904 0.06580515 -0.07778808 -0.24541399 -0.1442804 -0.09232348
-0.017463356 -0.28624657 -0.19524592 0.06023453 0.13450912 0.12093968 -0.052759152 -0.1293589
0.08884872 0.1331189 0.15868501 -0.33150205 -0.09954453 0.11123577 0.102452554 0.11782573
-0.11087398 -0.02610818 0.21071678 0.24586265 0.14496064 0.047949255 0.15249893 0.11601564
0.0921984 0.2518068 0.13548784 0.112874135 0.032281276 0.030440886 0.21770231 0.23889042
-0.039193094 -0.11311623 0.051951833 0.210659 0.09079006 -0.035211276 -0.14285716 -0.13411598
-0.17832345 0.046024557 -0.068702735 -0.037687663 0.029033372 -0.21230078

bias f4 [6]
00000000: aad7 0f3e bbd9 903d d1ad edbc c9c4 a6bc
00000010: 8a58 c5bd af80 febd
0.14047113 0.07072779 -0.029013546 -0.020357506 -0.09636028 -0.12426888

weight f4 [16, 6, 5, 5]
00000000: 5324 e93b 0479 9dbc 3d6b a43d 722c 01bd
00000010: 3392 b23d 4a95 d8bd b5c4 1cbd 195b b83d
00000020: fc8a ca3d 0867 313d 66be a4bd 0794 08bd
00000030: ea7e b13d eae5 a0bd 6050 78bc fa90 a63c
00000040: 0c58 bcbc 5c36 00bd b0c9 95bd e115 bf3c
00000050: a1bd 5abd f6bd 1dbe 7bee d3bd 6f9f 9fbd
00000060: e043 7bbd 119c 4f3d 6423 af3d 51df c33d
00000070: 3ffd 79bb 39cc ccbd 9b82 193e 88db 8c3d
00000080: 2f4e 87bb b16a 5b3d 3e4f 06bc 4ecf 703c
00000090: 79eb aebd 2139 08bd 5a76 c7bd 93eb 0cbe
000000a0: 1bfc 803b a0c4 f8bd 7fd0 3abc ba07 c4bd
000000b0: 2591 21ba 4ae7 af3c 5c1b dd3d b7f5 a93d
000000c0: 57d9 19bb f8ca 013c e1de e03d f4d4 7d3c
000000d0: 4191 263d d515 dfbc 7eda b9bd f9f7 e93c
000000e0: 2458 053d a07a 983c 7c39 d6bd ad33 cdbd
000000f0: a321 953d f97b 87bd 5388 1c3c 2b50 f7bd
00000100: 7385 343c 1e98 cd3d 7e3d 1c3d c308 443d
00000110: aef3 f43c 7ba1 2d3e 0a23 7a3c d144 543d
00000120: 958b 123e 6654 1a3e 2a3b 0d3e c300 313d
00000130: 7624 143e 1273 063e 09b8 443d c8b4 b9bd
00000140: 34bf d03d 9849 ac3b ca59 6cbd 599f b33b
00000150: bffb dabd fa10 003e 1942 163d 0efa a93d
00000160: 999f 973c 721b 473d 9b60 8f3d 5a3a c13d
00000170: 9c0c 8b3d 4971 d23c 0e90 f83c 3f30 2a3e
00000180: 1ae9 273e 0dcc 2e3e 58d6 ab3d e7d1 d03d
00000190: 83ec dfbd 7e8b 93bd a8c2 5dbd c627 a83d
000001a0: 3c70 d83c 7d57 c03d 4dcf 6a3d 3fb6 ec3d
000001b0: 3512 ea3d a602 82bb 5202 943c b265 0d3e
000001c0: 0b91 353c 35e6 42bd e18a dcbd e38e 3ebd
000001d0: 1ec3 c8bd 6959 5fbe 2218 53be 2078 1ebe
000001e0: 6edf 94bd c22b 6dbd 6f32 74be 6d00 0abe
000001f0: bd90 3dbe 660a b83c 2d22 ec3b de03 71bd
00000200: 0066 043d 4649 6b3d 3652 ddbd a943 8dbc
00000210: a913 543d 5b08 273d 6b02 1f3e 3dfe 10bd
00000220: c8dd 83bd 2a92 973d 3a9a ed3b a9fb 4c3d
00000230: a4cb 38bd caac 623d a30a 57bd b7df bcbd
00000240: 2a7b a6bd 8cf4 823c 4aae 123c 5078 16bd
00000250: eca3 c9bd 029f 87bd 43e5 58bd 159e 893b
00000260: 5555 893d 8346 bf3d 8b78 c8bd e3c9 8a3c
00000270: 6a1e 50bc 5f30 b03d e358 9a3d c70d 69bd
00000280: 328b 333c 3a70 b2bd b846 a03d 0520 c03d
00000290: 58b4 ca3d f995 c0bd 5a1b 09be 7dd4 a2bd
000002a0: 4a83 fa3d 384b 523d 928f 24bd 4f2d 1cbe
000002b0: c568 b5bb ca2b 753d 8d96 ae3c 5341 cf3d
000002c0: 121e d0bc 1f51 c5bd dd48 a4bd 4c72 b4bd
000002d0: 76ba 82bd da93 32bd 9287 00be 597f f8bd
000002e0: 5abb ff3c 5c0d ac3d cfeb a9bc 8c82 27bd
000002f0: 5d3c a83b f0ed c6bd 3f7b 143d 15d7 a03c
00000300: 15d1 1fbc 2107 adbc e540 1a3d ae43 0c3e
00000310: 4859 b23d d1d7 9a3d e7c4 ce3d 12b8 e3bc
00000320: 8634 1f3c a8b3 c8bc e690 90bd b493 563c
00000330: c33d ddbc 78ee d53c 244f 733d e6b8 b1bc
00000340: ea8d 79bd bf14 a73c 49bc 103e 4c50 393e
00000350: c8e0 3c3d 63ba f2bc b461 c33d 883d e83d
00000360: 64c6 b03d 80db 0e3e 7cf1 67bd ecff 96bc
00000370: 3578 03bd b77c 10bc a222 fbbd 6e47 68be
00000380: eaec 53bd c429 a9bc 1318 b43d 14d7 8b3c
00000390: 2842 84bd 0440 a53d 2312 dabc e78f 233d
000003a0: f824 b7bb 8869 67bd 142d 0d3e 977c 323b
000003b0: 8520 343e 992c 8b3d 898b 36bd 47c4 98bd
000003c0: 1c2b 143e 90c7 0f3e 407c 0b3d 3230 243d
000003d0: 3ca8 03bd fabb 093e 45d4 483e d341 ce3d
000003e0: b0fa a6bb d4f4 1cbd 36c3 b73d 8869 e9bc
000003f0: 045c c9bc d639 fa3c e3a0 aabc 4150 ce3d
0.007114926 -0.019222744 0.080282666 -0.031536527 0.087192915 -0.1057535 -0.038273532 0.090017505
0.098897904 0.04331115 -0.08044128 -0.033344295 0.08666785 -0.078563526 -0.015155882 0.020332802
-0.022991203 -0.03130184 -0.073138595 0.023325862 -0.0534035 -0.15404496 -0.10348221 -0.077940814
-0.061344028 0.050685946 0.08551672 0.095640786 -0.0038145331 -0.0999989 0.14991228 0.0687781
-0.0041291933 0.053568546 -0.008197604 0.014697863 -0.085410066 -0.033257607 -0.09739371 -0.1376174
0.0039363033 -0.12146878 -0.011402248 -0.09571786 -0.0006163291 0.021472592 0.10796234 0.082988195
-0.0023475492 0.007921927 0.10980011 0.0154926665 0.04066587 -0.02723209 -0.09074877 0.028560625
0.03255476 0.01861316 -0.10460183 -0.10019622 0.07281806 -0.06615443 0.009553987 -0.12075838
0.011018145 0.1003878 0.03814458 0.04785992 0.029901352 0.16956131 0.015267143 0.05182344
0.14311059 0.15071258 0.137921 0.043213617 0.14467034 0.13129833 0.048027072 -0.090676844
0.10192719 0.0052577965 -0.057702817 0.005481642 -0.10692548 0.12506476 0.03668413 0.08299647
0.01850872 0.04861016 0.07000848 0.09434958 0.067895144 0.025688784 0.030342128 0.16619967
0.16397515 0.17070027 0.08390492 0.10196286 -0.10933783 -0.072043404 -0.054140717 0.08210711
0.026420705 0.09391687 0.057326604 0.11558198 0.11429254 -0.003967601 0.018067513 0.13808325
0.011081944 -0.047582824 -0.107686765 -0.046522986 -0.09802841 -0.21811451 -0.20614675 -0.15475512
-0.07269178 -0.05790306 -0.23847364 -0.13476725 -0.18512245 0.022465896 0.0072062225 -0.05884158
0.032323837 0.057442926 -0.10806696 -0.017244177 0.051776562 0.040779453 0.15528266 -0.03539871
-0.06438786 0.074009255 0.0072510513 0.05004469 -0.04511608 0.055340566 -0.05250038 -0.09222358
-0.081289604 0.01598575 0.008952687 -0.036735833 -0.09845719 -0.06622125 -0.052953016 0.004199753
0.06705729 0.09339621 -0.09788617 0.01694197 -0.012702564 0.08602976 0.07536485 -0.056897905
0.01095848 -0.08712812 0.078259885 0.09381107 0.09897679 -0.09403605 -0.1338934 -0.07950685
0.12232073 0.051341265 -0.04017598 -0.15251659 -0.005536171 0.059856214 0.021312023 0.101198815
-0.025404964 -0.09634613 -0.0802171 -0.08810863 -0.06383221 -0.043598033 -0.12551716 -0.12133665
0.031217266 0.084009856 -0.020742325 -0.040895984 0.005134149 -0.09713352 0.03625035 0.01963381
-0.009754439 -0.021121563 0.037659544 0.13697693 0.08708435 0.07560695 0.1009615 -0.027797733
0.009717112 -0.02449973 -0.07058887 0.013096739 -0.02700699 0.026114687 0.059401646 -0.021694612
-0.060926355 0.020395635 0.14134325 0.18097037 0.046112806 -0.029629892 0.0954012 0.11339861
0.0863159 0.1395092 -0.05662678 -0.01843258 -0.03209706 -0.008818797 -0.12262465 -0.22683498
-0.05173961 -0.020649798 0.08793654 0.01707033 -0.06457931 0.08068851 -0.026619976 0.039932158
-0.005589124 -0.056497127 0.13786727 0.0027234906 0.1759053 0.06795616 -0.044566665 -0.07459312
0.1446957 0.14040971 0.03405404 0.040085025 -0.032142863 0.13450614 0.19612224 0.10071149
-0.0050958022 -0.038319424 0.089727804 -0.028492704 -0.02458001 0.030545156 -0.02082867 0.10073901

bias f4 [16]
00000000: 1892 1dbd ca9e 4d3d ba45 c4bc 1baf 663d
00000010: 5869 003e 8acd 123e a89d e3bd 6326 74bd
00000020: 78c0 ccbc e974 5abd 7a1e 4cbd 2ffe ff3c
00000030: 4c77 e2bd a1f3 00bb eb9f 473d 624f bb3d
-0.038469404 0.05020026 -0.02395903 0.056319337 0.12540185 0.1433622 -0.11114055 -0.05960692
-0.02499412 -0.05333415 -0.049833752 0.031249134 -0.1105791 -0.0019676464 0.048736494 0.091460004

weight f4 [120, 400]
00000000: 5de3 92bd 06a2 d63d 7a14 963d f701 aa3c
00000010: 0210 07bd 9419 843d a7b6 7c3c e7bb 3a3d
00000020: 9a2c c5bd e572 c0bd a17a 0abd 93e4 223c
00000030: 6f42 613d d9f5 53bd b1cf 8a3d 7e73 1fbd
00000040: c8fa 0f3e c64f 783d be42 b43d c56e 613d
00000050: 920c 393d bcca 943d 7a5a a53d bc87 353d
00000060: 66e9 713d 9a68 debc 7aee 6e3c b5eb 30bd
00000070: 1b40 87bd f574 013e b4e0 16bc adcc 413b
00000080: 27fb babc 4b50 a2bd 5e65 963d 0a86 f1bc
00000090: c42c ef3b 5222 8fbd d44d 71bd 30b3 a43c
000000a0: 775d 8c3d 538a b63c 2222 66bd 896c 77bd
000000b0: a5e8 383c 17e0 213c 2413 443c 7d0c 1a3d
000000c0: 6cce 493d ee79 c83d 0bcf 183d 2327 d83c
000000d0: d8e4 98bb 76be 8c3c f1c8 c9bd 2744 05bc
000000e0: 31e8 ecbd fc4b f0bd c211 a7bc ba78 903d
000000f0: bb8d e3bd ce0d 36bd ff73 05bd 9a6a 97bc
00000100: fb7f 75bb 209a 6dbd a6f3 993c 560e f03c
00000110: 73c0 e63d a5fd 1dbe 6be3 6b3d abc7 dabc
00000120: 93fa 6b3d 4bdf 2b3d 3907 ddbb 5df7 09bd
00000130: f7ce c73d 07af 173e c964 8ebc ce24 8abc
00000140: d46e 8ebd 4b8d adbd 06c8 53bd cdd3 c23c
00000150: b7cc 78bd eee0 eebd 5402 92bc d2cf 863d
00000160: 8141 a7bd 4076 fcbb 9d3d 70bd b1ce 86bd
00000170: fd66 c23c f502 7bbd 5c69 06bd 8f24 02bd
00000180: 9be2 973d aeeb 6f3d ceee 7b3d 79b1 01bc
00000190: b947 acbd 8d20 29bb 9803 0f3d 934f 0f3b
000001a0: 9238 d4bc b175 c2bc 3969 a83c 7e4e b9bd
000001b0: d8da 8cbd 3231 603c 5273 513c ab1e 373c
000001c0: dc59 85bd 8d6f 93bd acb9 7b3c 1fa8 273d
000001d0: 9f08 b63d dc27 84bd ab58 30bd b218 40bb
000001e0: c905 a73d 6953 eb3d 0db7 e13d 9f00 023e
000001f0: 436e 253e a3a1 a83c 9a97 e5bc 96df 1fbd
00000200: 7d06 78bd 909a 8bbd befa 743d 0c48 ae3c
00000210: c278 bf3c 86fb c7bc 0ba0 60bc 4614 c03d
00000220: f8ef f6bc 9335 60bd 8c83 9a3c 0a94 8fbd
00000230: ceca 433d bd50 563d 6f38 24bc bb45 a73d
00000240: eb38 b63d 350a b93c 653f dd3c 8a99 84bd
00000250: 052a 233d 80c5 843d 8a1f 723d 8606 2d3d
00000260: 53d1 48bd bc1b 73bd 7c67 79bc caed 2c3d
00000270: 9654 bd3c 65f2 16bb 1271 203c fd6f a83c
00000280: 1851 a83d 70fe 46bd ea88 adba bd5e 26bd
00000290: 4612 a7bd 78bb 95bb 86da 8abd 4965 0e3e
000002a0: 7c56 b83c a4c5 2b3d d7ec 6ebd 1635 bfbd
000002b0: e6a9 123e e023 91bd ee80 4abd a487 a53d
000002c0: d451 d8bc a3ab a03b 56ed ce3b eca8 223d
000002d0: 2bf9 84bd c9b3 a1bd 2089 143d 2ca6 853d
000002e0: 7a6e 723b 100f 773c 96b1 a5bd 8f0d e1bd
000002f0: 4d60 aa39 58e7 05bc 91b7 e8bd 1fb7 e7bc
00000300: 6f1e b03d 7b99 b1bd e4f4 f83b 8edd 4e3d
00000310: f499 193d a963 073e 1b4f fabc 117a 2a3d
00000320: ea45 75bc 367e 8dbd 034d 843c 9afa 1fbc
00000330: 3f7e 913d f8b1 96bd b9b6 12bd ad97 9d3c
00000340: 6880 363d d843 29bc fe0d ffbd 5947 0b3d
00000350: 7f29 e63b 8e00 293c 3d3d 0dbb 133b 9dbd
00000360: 5c31 9c3b 6aca e43c a67d ea3a 734d 09bc
00000370: 6263 433e 0893 1b3e 1431 2d3e 659b b93d
00000380: 9a62 2e3d 3019 e33b 7613 37bd fe15 c2bd
00000390: 8e24 5cbc 2124 c7bb b0f9 b63c 9775 af3d
000003a0: 580d 263e d9d4 1cbd 9b46 aa3c 094f 0abc
000003b0: 2dd4 c3bd 79b5 24bd da93 75bc f393 1abd
000003c0: 9407 63bc 410a 06bd 8610 a3bd c58f 673d
000003d0: 2f18 d63b 3331 06bd 581b 00be 30e7 0abe
000003e0: f880 ddbc 24ff 7dbb 5dc1 ae3b 884a a53d
000003f0: 8f10 eb3c 127f a9bd d4b4 94bc d457 803d
-0.07172272 0.10480122 0.07328124 0.02075289 -0.03297425 0.06450191 0.015424407 0.045589354
-0.09627648 -0.093969144 -0.033808354 0.009942192 0.054994997 -0.05174813 0.06777895 -0.0389285
0.14060509 0.060622953 0.088017926 0.05503728 0.045178004 0.07265231 0.08073898 0.0443189
0.059060477 -0.027149487 0.014583224 -0.043193538 -0.06604024 0.12642272 -0.009208847 0.002957146
-0.022824837 -0.07925471 0.07343553 -0.02948286 0.0072990377 -0.06988968 -0.058912113 0.020104975
0.068537645 0.022282755 -0.056184895 -0.06040624 0.0112859355 0.009880087 0.011967454 0.037609566
0.049269125 0.09788881 0.037306827 0.02638585 -0.004665952 0.017180663 -0.0985278 -0.008133925
-0.115677245 -0.11733243 -0.02039421 0.07054277 -0.11111017 -0.04444676 -0.032581326 -0.018483449
-0.0037460316 -0.058008313 0.018792938 0.02930371 0.112671755 -0.15428789 0.05758993 -0.026706537
0.057612013 0.041960996 -0.006745246 -0.03368317 0.09756272 0.14812861 -0.017382042 -0.016863253
-0.069547325 -0.08474215 -0.05170443 0.023782635 -0.060742106 -0.11663996 -0.017823376 0.06582607
-0.08166791 -0.007704526 -0.05865251 -0.06582392 0.02373075 -0.061282117 -0.032815322 -0.031773146
0.074162684 0.05857437 0.06150704 -0.007915848 -0.084121175 -0.0025806755 0.034915537 0.0021867498
-0.025905881 -0.02373776 0.020557987 -0.09048174 -0.06877679 0.013683604 0.012783842 0.011176745
-0.0651128 -0.07199011 0.015364092 0.040931817 0.08888363 -0.06452915 -0.04305331 -0.0029311595
0.081554 0.114905186 0.11021242 0.1269555 0.16155343 0.020584887 -0.02802639 -0.039031588
-0.060553063 -0.0681659 0.05980944 0.021274589 0.023373011 -0.024411928 -0.013710032 0.09378867
-0.030143723 -0.054738592 0.018861555 -0.07010658 0.04780083 0.05232309 -0.01002322 0.08167597
0.08897575 0.022587875 0.027007768 -0.06474598 0.039834995 0.06482983 0.05911211 0.04224255
-0.049027752 -0.05935262 -0.0152224265 0.04221896 0.023111623 -0.0023032662 0.009792583 0.020561213
0.082185924 -0.048582494 -0.0013239656 -0.040617693 -0.08157782 -0.004569467 -0.06779961 0.13905825
0.022502176 0.04193653 -0.058331337 -0.09336297 0.14322624 -0.07086921 -0.049439363 0.08082512
-0.026406206 0.004903273 0.0063149137 0.039711878 -0.064928375 -0.078956194 0.036263585 0.065258354
0.0036992119 0.015079275 -0.080905125 -0.10988914 0.00032496676 -0.008172832 -0.113631375 -0.028285561
0.08599555 -0.08671852 0.0075975526 0.05050426 0.037500337 0.13221611 -0.030555299 0.041620318
-0.014970282 -0.069088385 0.016150003 -0.009764338 0.07104158 -0.073581636 -0.03581879 0.019237364
0.04455605 -0.010331117 -0.12453841 0.03400359 0.0070239897 0.010315074 -0.0021551393 -0.07677283
0.0047666263 0.02792855 0.0017890229 -0.008380282 0.1908088 0.15192807 0.16913253 0.09062842
0.042574503 0.006930493 -0.044696294 -0.09476851 -0.01343645 -0.006077305 0.022335857 0.0856735
0.16216028 -0.038288925 0.02078562 -0.008441695 -0.09561954 -0.04021213 -0.014988864 -0.03773875
-0.013856787 -0.032724623 -0.07962136 0.056533594 0.0065336446 -0.032761764 -0.12510431 -0.13564754
-0.027039036 -0.0038756812 0.0053331093 0.08070856 0.02869442 -0.0827619 -0.018152632 0.06266752

bias f4 [120]
00000000: a758 443d 28ed c73d 1ba8 f1bb 8b28 ad3d
00000010: 58f3 eb3c fc13 823c 75f2 03bd ecb9 5fbd
00000020: 88ed e2bb d322 243d 9f19 a53c 3af6 b7bd
00000030: 4bab b43a 2c01 9b3c d658 6c3d 9d43 203c
00000040: 7537 30bc 5883 3abc 9f8a 36bc f872 8a3d
00000050: 0674 803d 5ae3 9a3c b430 a4bb cc64 9f3d
00000060: eea4 443c 1169 88bd 812b 463c 3412 633d
00000070: 45e4 a53b 9d8f 143d 22c2 12bc 02a7 cf3d
00000080: 63f7 b03c ee19 c73c 9b4c 3fbd f72f d9bc
00000090: fbcb 7abc 1b5e 1cbc f9fc bf3a 230c 023b
000000a0: 0b5f 9fbc 74d1 1f3d d590 f9bc 4529 8d3c
000000b0: a89b f33c 0d11 be3c 2f86 95b9 4713 523c
000000c0: 26bc 77bc b698 8e3d 2ed9 6c3b fa31 32bd
000000d0: 03e7 9cbd c6fe c5bc 65fd 8b3d 700f 0a3d
000000e0: a349 223c a8d7 513c dd74 803c 8cee 39bc
000000f0: 7acc ce3c a1f8 9abb 80b4 8fbc 3e6b a6bc
00000100: 8278 ea3b 5a42 0dbd 765c e8bc 8af5 8ebc
00000110: 9950 0ebd 7345 5b3d da0c b2bc 1dfe 50bd
00000120: 33b8 0e3d d843 ff3b d2ec 1ebd 2114 b73d
00000130: 8d01 dfbc 0ce2 473d 1ba8 b9bc 0d82 af3c
00000140: 5c1f 3d3c c704 733d a3d3 cf3b 30e3 30bb
00000150: ae26 a23d 59b8 8dbd bd0b 033c dc71 d3bc
00000160: 52db a23b 123c ddbc eba9 e4bc 12e6 47bb
00000170: 9331 2bbd 8c14 1b3d f159 253d 4eeb 8ebd
00000180: 7226 103c 5a03 9d3b 3570 063d 0982 69bd
00000190: a667 a43d 3a39 d8bd 4230 a3bd ad58 123d
000001a0: d0a1 06bd 49a9 253b 868b 883d 2803 01bd
000001b0: 758a 82bd 51c9 a0bc cbb9 833d f4ae 4dbd
000001c0: b5bc c1bd 717f 4abd f375 6abc 80d1 71bd
000001d0: c407 ecbc 3309 46bd 5487 51bd 6a4b dcbd
0.047936108 0.09762031 -0.007374776 0.084549986 0.028802559 0.01587867 -0.032213647 -0.05462067
-0.0069252886 0.040072273 0.020153819 -0.08982511 0.001378396 0.018921457 0.057701908 0.009781745
-0.0107554095 -0.011383854 -0.011141448 0.0676021 0.0627213 0.018907238 -0.0050106887 0.07782897
0.012002213 -0.06660665 0.012095333 0.05543728 0.0050626122 0.036269773 -0.008957418 0.10139276
0.021602338 0.024304356 -0.046703916 -0.02651213 -0.015307422 -0.009543921 0.0014647535 0.001984366
-0.0194545 0.03901811 -0.03046457 0.017231593 0.029737309 0.02320149 -0.0002851947 0.012821979
-0.015120542 0.06962721 0.0036140191 -0.043504693 -0.076612495 -0.024169337 0.068354405 0.03370613
0.009905252 0.012807764 0.015680725 -0.011348378 0.025243986 -0.004729346 -0.017542124 -0.020314809
0.007155479 -0.034487106 -0.028364401 -0.017451067 -0.034744833 0.05353303 -0.021734644 -0.05102359
0.034843635 0.00779007 -0.03880007 0.08939386 -0.02722242 0.04879956 -0.022663167 0.021424318
0.011543121 0.059330728 0.0063423677 -0.0026990883 0.07917534 -0.06919927 0.007998404 -0.025811128
0.0049699927 -0.027006183 -0.027913054 -0.0030502123 -0.041795325 0.037861392 0.040368978 -0.069784746
0.008798229 0.0047916593 0.032821853 -0.057008777 0.08027582 -0.1055779 -0.07968189 0.0357291
-0.03286916 0.0025277904 0.06667237 -0.03149715 -0.06374065 -0.019627245 0.064319216 -0.050215676
-0.09459821 -0.049437944 -0.014310348 -0.059037685 -0.028812297 -0.048348617 -0.05115445 -0.107565716

weight f4 [84, 120]
00000000: 022a 9b3d eac6 9b3d ba10 7fbc 2324 1ebd
00000010: 1d0f 173d e437 cabd e45a c53d b279 5e3d
00000020: 4120 a23d 6e69 063d 4c00 e33c ee46 cebd
00000030: b659 d6bd d9df 343d d9e8 97bc ef94 b7bd
00000040: 2bc9 823b c5c7 203d dd33 123b aa26 f83d
00000050: 5e97 993d b86d db3c e2ee 56bc 84dd ee3d
00000060: 7a13 ed3d 5d6b c4bd b3d3 76bd 9b58 ba3d
00000070: 877e 8fbd 3dc9 b33d b773 013c 2b6c 133e
00000080: 99b8 13be 0b3e bfbd ef81 1bbd c615 13be
00000090: 502b a2bc 4fee fc3c 6aec 6c3d 4028 a4bd
000000a0: a695 1bbe 328b 85bd 8a0f 41be 80f4 8cbd
000000b0: 8415 7f3d 1dde 35bd a3b4 8d3d 1713 b13d
000000c0: 65cc 933d ed8a bcbd c8b6 383d e015 263e
000000d0: 866c 14be d024 6fbd 6c70 b6bc d246 ed3d
000000e0: 2c43 8bbd 96e6 703d 1f1f 933d 6e08 71bd
000000f0: 5d51 16bd b191 28bd 67d8 18be 46da 003b
00000100: 4aed 4f3d 2897 983d 1c68 82bc 22dd 813d
00000110: aafc 1fbe a660 273d f06a bc3d 7a86 0bbe
00000120: 15a9 1dbe a51e 8b3c 214f 313d c75a 083e
00000130: 5935 3ebd a2ca 4e3d 7c56 f53c 3d3d b3bc
00000140: 1eff 993b a88d 383d aa38 a63d 6fd0 b03d
00000150: da0c fa3c def0 10bc cd01 b1bd 7908 1dbd
00000160: bd7b 403d 2eb3 25bd 0c3a 713d d772 4abd
00000170: d512 a6bc cbdf d4bd 28ba fcbd ed08 453d
00000180: fad6 9b3a 2073 6dbd 8883 bf3d 7f0f a83c
00000190: 5f8b b63d ebf4 82bd 93d6 d2bd 6e80 253e
000001a0: ae20 103e 7316 b0bc e1e9 1b3e 426e 51bd
000001b0: fe76 383c 8fb4 40be 8cae 373e e5d5 163e
000001c0: a51a 02be 82c3 d8bd 9bf9 1d3e f4cd 8c3d
000001d0: d57d d1bd 1726 cfbd bc6b b0bc a7d2 f7bd
000001e0: 2293 afbd 9322 ea3c 97b5 e53d 7474 973c
000001f0: 2b68 a33d 4b45 14be b1d9 5e3b 9359 113e
00000200: 1634 21bc 2bba d73a d8a4 a83c 0f71 8dbb
00000210: 3e86 5e3c cfe5 b1bd 31d0 e23b 2ee3 943d
00000220: cc69 4cbd cf6f 15bd bd5f 83bd e609 6b3c
00000230: 4716 183e ac68 9bbd 2798 b43d a314 ac3d
00000240: 6b53 8dbc 00b5 ddbb 2fe8 583d 5dc1 1cbc
00000250: 3d1f 3abe 6e4e ccbc f6b0 36be 67e4 3cbd
00000260: 6a8d bebd 3f47 c43d 865a ed3d adc6 9dbd
00000270: 7f87 443d 7a2a 89bd 5c44 003e 8c82 33bd
00000280: eba2 e8bd 0b64 323d 139c c6ba 5e28 123c
00000290: 0680 c9bc df65 0f3e dda8 023e 2a77 d7bd
000002a0: ca58 e13c de1d cfbd eabb 283d 4ef5 533d
000002b0: 8e21 24bc 23c3 1d3c 0599 8fbd f9cd f53d
000002c0: 5ccf bdbd a562 5dbd e44d d23d 4b7d b43d
000002d0: 287c 90bd d927 9a3d 829d b2bd ef85 973d
000002e0: ef77 2a3e 499e d63c e8aa 97bc 1e16 6abd
000002f0: a10d debc a0f6 30bd 8808 a53d 3796 60bc
00000300: fa22 e6bd 3486 0bbd e08c a23c db95 ebbd
00000310: 2a8e d7bb 6c89 d43c 96d0 dcbc 454a 9dbd
00000320: 4c3b 78bd 9113 ddbd 5b45 d13c 933b 8e3d
00000330: a517 1abd 8837 15be 894c 933d 4a00 203e
00000340: 9921 6d3d dcb4 043e d25b ed39 92e7 4abd
00000350: 8d9e 23bc 0deb ecbd cc86 b4bc 3520 563c
00000360: 1294 813d 5c26 93bd 5ed9 343d e79b 8a3d
00000370: 1546 e53d 05b0 a43d 0877 cf3c 4c66 23bd
00000380: 4df3 e73d db83 f4bd ea10 cd3d 8cec a6bd
00000390: e670 94bb f430 3cbc c682 9f3c e29a 13bc
000003a0: c929 26be f8d8 84bd 3d7a 5cbd 908b 4abd
000003b0: b343 aebc b48a ecbd f89a 4e3d e667 92bd
000003c0: 7c60 b5bd 22ee a63d 3a37 7f3d a9d8 1b3d
000003d0: 059c cc3d ae2c fabc 8746 bbbd 0527 913d
000003e0: 8d9a 81bd 1cea 2cbd 3ee6 8c3c 8fbe 243e
000003f0: 0366 1dbd 945c 883d 6107 903c 2b8c a93c
0.07576372 0.07606299 -0.015567953 -0.03860868 0.036879648 -0.098739415 0.09636477 0.054315276
0.07916308 0.03281539 0.027710102 -0.100721225 -0.1046633 0.04415879 -0.018543648 -0.08963954
0.0039912662 0.039253015 0.0022308745 0.121167496 0.07499574 0.026785716 -0.013118478 0.116633445
0.115759805 -0.095907904 -0.060260486 0.090989314 -0.07006555 0.087786175 0.007901124 0.14396732
-0.14425887 -0.09338006 -0.03796571 -0.14363775 -0.019796044 0.030875353 0.05784265 -0.080154896
-0.15193805 -0.0652069 -0.18853584 -0.06882572 0.06227638 -0.044401277 0.06919219 0.08646219
0.072167195 -0.092061855 0.04509619 0.16219282 -0.14494523 -0.058384717 -0.022270404 0.115857735
-0.067999214 0.058813654 0.0718367 -0.05884593 -0.036698688 -0.041154567 -0.14926301 0.001966135
0.050763406 0.07450706 -0.015918784 0.06341006 -0.15623727 0.040863656 0.09200084 -0.13625517
-0.15396531 0.016982386 0.043288354 0.13315879 -0.046437595 0.050486214 0.029948466 -0.021879787
0.004699602 0.04505697 0.081162766 0.086335056 0.030523706 -0.00884649 -0.086429216 -0.03833816
0.046993006 -0.040454082 0.05889325 -0.049425926 -0.020272652 -0.103942476 -0.12340194 0.048104215
0.001188963 -0.05797112 0.093512595 0.020515202 0.08913302 -0.06394371 -0.10294833 0.16162273
0.14074966 -0.02149508 0.15225936 -0.05113054 0.011258839 -0.18818878 0.17937678 0.14730032
-0.12705477 -0.10584165 0.15427248 0.0687522 -0.10229079 -0.10114687 -0.021535747 -0.121007256
-0.08572985 0.02858094 0.11216276 0.018488146 0.07978853 -0.14479558 0.0034004266 0.14194326
-0.009839078 0.0016458681 0.020586416 -0.004316456 0.0135818105 -0.08686411 0.006921791 0.072698936
-0.049905583 -0.036483582 -0.06414745 0.014345622 0.14852248 -0.07588324 0.08818083 0.08402374
-0.01725169 -0.0067659616 0.052955803 -0.009567586 -0.18175979 -0.024939742 -0.17840943 -0.04611626
-0.09304316 0.095839016 0.115895316 -0.0770391 0.04798078 -0.06697555 0.12526077 -0.04382567
-0.11359199 0.04355244 -0.0015152715 0.008920757 -0.02459718 0.14003704 0.12759729 -0.105207756
0.027508158 -0.101131186 0.041194834 0.051747613 -0.010017766 0.009629044 -0.07011608 0.12002177
-0.09268066 -0.054049153 0.10268763 0.0881296 -0.07054931 0.075271316 -0.087214485 0.07398593
0.16647314 0.026198523 -0.018514112 -0.05715 -0.027106108 -0.04320395 0.08058268 -0.013707689
-0.1123714 -0.034063533 0.019842565 -0.11503192 -0.0065782266 0.025944434 -0.02695493 -0.076801814
-0.060603425 -0.107947476 0.025545767 0.06944957 -0.037620205 -0.14571965 0.07192332 0.1562511
0.05789337 0.12959617 0.00045272574 -0.04953725 -0.009986532 -0.1156827 -0.022036932 0.013069202
0.0632707 -0.07185051 0.04415261 0.06768017 0.11195008 0.080413856 0.025325313 -0.03989248
0.11325703 -0.11939212 0.10012992 -0.081505865 -0.00453006 -0.011486281 0.019471537 -0.009009095
-0.16226877 -0.06486696 -0.053827513 -0.049449503 -0.021272516 -0.11549893 0.05044076 -0.07148723
-0.088562936 0.08150889 0.062308528 0.03804842 0.09990696 -0.030538883 -0.091443114 0.070875205
-0.06328306 -0.04221545 0.017199632 0.16088317 -0.038427364 0.06658283 0.017581644 0.02069672

bias f4 [84]
00000000: b33e 473d 166e 963d 8811 923c bcf2 4a3d
00000010: 9c1c 1d3c 64b1 463d e8c1 de3d f0b4 9f3d
00000020: 3008 703c 7b38 cbbd c45b ad3d 1d5c 82bd
00000030: ec8d 7cbd 72f2 103d c4e1 ccbd 3175 253d
00000040: 171f a73d c2a8 57bd 24a9 cdbd 58e7 bdbd
00000050: ee99 dc3d 7532 93bd bb28 cdbb 23ac 0ebb
00000060: 34bc 213d a668 5c3d 6fa0 4abd a35b f53c
00000070: b984 fcbd ef22 6fbd a5f0 e43b 94b5 fe3c
00000080: aca9 393d d390 71bd d248 d03c 457e a1bd
00000090: 5f39 663c 4b0c 253d 5c73 663c 0276 a63d
000000a0: d5d4 56bd eb8a 8b3d 4981 87bd e978 11bd
000000b0: aab2 b53d 3f8f 8e3d b56e b83d 4106 8c3d
000000c0: ef17 88bd 386b 24bd b113 dfbd d207 873d
000000d0: cec0 a53d 5c3e a3bd c3eb 5eba a25a a9bd
000000e0: e83f 89bb d0a7 863c a171 09bd 28d7 07bd
000000f0: 9c08 7dbd e1ed 083a 750e 0b3c 3828 873d
00000100: ad3f 023e fe3a 303d 5261 e8bd dffd 2d3d
00000110: 06a8 c2bd 36d0 053d fbde 16bd 4fda cabd
00000120: 82f8 cd3d 10b1 7f3d c9b8 a7bd 2f0c df3c
00000130: 96b1 8bbd 7e74 fabc 053c 6c3d ba44 773d
00000140: caca 44bd a17f 05bd 3b9f c63d 1966 10bd
0.04864378 0.07345216 0.017830625 0.049547896 0.009589341 0.048509017 0.108768284 0.07798183
0.01465039 -0.09922882 0.084647685 -0.063652255 -0.061658785 0.035387464 -0.10003999 0.040394966
0.08160227 -0.052651174 -0.10042027 -0.09272641 0.10771547 -0.07187358 -0.006260959 -0.0021770082
0.039486125 0.053810738 -0.049469408 0.029950922 -0.12330002 -0.058382925 0.006986695 0.031092443
0.045327827 -0.058976006 0.025425348 -0.07885412 0.014051764 0.040294927 0.01406559 0.08127977
-0.052449066 0.06813606 -0.06616456 -0.0355157 0.08871968 0.06960916 0.09005491 0.0683713
-0.0664519 -0.040141314 -0.10892428 0.065932885 0.08093415 -0.079708785 -0.0008503759 -0.0826924
-0.0041885264 0.016437441 -0.03355563 -0.033164173 -0.06177579 0.0005223435 0.008487334 0.06599468
0.12719603 0.04302501 -0.113466874 0.04247844 -0.09504704 0.03266927 -0.036833744 -0.0990492
0.10057165 0.06242472 -0.08189542 0.02722749 -0.06820981 -0.030573126 0.057674427 0.060368277
-0.048044957 -0.03259242 0.096983396 -0.035253618

weight f4 [10, 84]
00000000: d71a b4bd 5f78 9d3d 43b8 bebd 275c c3bd
00000010: 1f47 ad3c 9524 0bbe c24c 053e f8a1 b2bd
00000020: 171a ebbb 70df 563e 6993 ebbd 123d 23bd
00000030: 2e78 ccbc b35c 8e3d 1c0d d03d 8af8 9cbc
00000040: 0b90 b83c 924a aebd 5e6d 123e 0049 d5bd
00000050: 9fc3 51be 92bd 6b3c e4d4 50bd d3d0 d0bd
00000060: 9a82 2fbe 2ad7 06bd 6b5f 313d 9edf debc
00000070: d5dd 303e b088 f6bc 1141 e53d 18df ed3d
00000080: 9851 843d a736 6cbe 6bf8 063e dcdc 0bbd
00000090: 067d 9f3c 9320 1cbe d234 063e f049 b7bd
000000a0: 46e4 2ebe d87e df3c b6ae 753d 90de 533e
000000b0: c4f6 6fbd 3f94 b0bc 1056 8abd 53a4 6a3d
000000c0: dc18 2d3e caa6 f33d dbbd 333e 2856 703d
000000d0: 94bf fcbc 7068 54bd 44f4 053e 7f2e a13d
000000e0: 1079 9b3d f6e4 f53d 4572 03be b75f edbd
000000f0: e5f7 e0bb 13d4 913c eeb3 013e 1f7b 433e
00000100: 02c3 de3d 688e 173e f9b3 83bc 5063 0a3e
00000110: 4099 f43d ca24 45be 8e93 1a3d 0295 6fbd
00000120: 26f3 bebc cd9b 17bd bd24 3dbd 3abc a23d
00000130: 0f90 263e c58a d1bd b3d6 f83d b9a4 1b3e
00000140: 0c19 cbbc c758 31be 6707 343d 47f0 ae3d
00000150: 9286 a8bd 155e 203d 3f5f 21be d446 8f3d
00000160: e2bb 243e 070e cabd 0e18 e2bc 22c5 663d
00000170: d651 e63d a431 9ebc 1074 21be 584d b53d
00000180: 167c 053e a809 d93d 0e71 adbd 2460 303e
00000190: 2e94 92bd c870 2c3e fe98 2b3e 98eb 86bc
000001a0: f5f5 b63c d315 e6bb 6d0a 1dbe ae7a ef3d
000001b0: b822 e73d 81b8 493c a982 afbd efd4 3a3e
000001c0: e6de 94bd 733b 2d3e f73a 613d 3fd8 52bd
000001d0: ef7b 23be abd5 05be 0793 75bd af9e a83d
000001e0: 4dda 39be 7e65 223e e0e9 1fbc b868 c9bd
000001f0: f4a3 ae3d 8255 ce3c 58e9 8fbc ce42 90bc
00000200: c61f d03d ea1e 2ebe 59c6 cb3c f0a7 cdbd
00000210: 1ce8 e63d b548 d5bb b7b9 7e3c f80f 67bc
00000220: cd22 20be ef82 983d 0f34 fdbd cd50 2a3e
00000230: 99ec 02be 89cb 8c3d aab3 a2bd 9b20 853d
00000240: 12bf 963d e37e 26be c71b 01be 2bff 57bd
00000250: 2c9b 2f3d f379 083d d39d 4abc ba65 b1bd
00000260: 5005 d2bd 0724 a93d 26b6 2d3e 33e0 dc3d
00000270: 03ef 2a3c 7419 533e ba90 2bbe e821 573d
00000280: d51b 6fbd c304 813d 441c e1bd 845d 6e3b
00000290: f3ea 413e 7c17 ae3d bce6 933d 073f 173d
000002a0: fdaf 213e ea4a 0a3e 3b60 00be 20de 6e3d
000002b0: 1d68 4cba f9dd 8a3c 0c99 16bd be8e 183e
000002c0: 1996 073e 0c6a f8bd 18ff e4bd 0893 513d
000002d0: 662a 073c 6856 fc3c 4a2b cb3d 32f7 673c
000002e0: 2c49 dd3d f859 933d e342 1fbd bc3e 1dbe
000002f0: 5561 27be 6b79 66bd a4eb e3bd 5d97 713c
00000300: 8de8 7a3d a6cd a4bd 20eb 45bd 5ede c33d
00000310: e863 6d3d 5010 233e 44ce 1fbd a30f 623d
00000320: 817a c63d 816b 8dbc 4b85 393e 3cad 223e
00000330: cd85 193e 4936 103d 4e06 fa3d 36e6 58bb
00000340: 42d8 b13d 2047 213e 0eac 1d3c 7e50 7c3d
00000350: b4bb 163e acce ecbd 07a5 c8bd 02dc 0cbd
00000360: 7224 82bd 9365 fcbc 27aa 6c3c 639b 9b3d
00000370: 3bfe adbd b9a5 3a3e 835b 2a3d 4aaf 03bd
00000380: b329 f1bd f518 0cbe 6d63 c93c b0fa 3f3d
00000390: 5003 05be c0ba ce3c 174f d23d 6efb 0dbe
000003a0: 6a2a 293e d242 5ebd f3e2 153e 7e5a 22bd
000003b0: 0ba5 193b 4008 dfbc ab2a a4bc 3d57 c03c
000003c0: 2847 23be a881 083d 0304 dc3d c8f9 2b3e
000003d0: c369 81bd b3e8 2ebe c5ac a23c 0bce 203d
000003e0: 64d7 6dbd 68fe a7bd 05e3 2fbe c325 2abd
000003f0: 86a5 243e 1549 4fbb 259a 2bbe 4fc3 0c3e
-0.08794182 0.076889746 -0.09312489 -0.09539061 0.021152077 -0.13588174 0.13017562 -0.08722299
-0.007174741 0.20983672 -0.11502726 -0.039853163 -0.02495965 0.06951275 0.101587504 -0.019161481
0.022529623 -0.08510317 0.14299533 -0.10414314 -0.2048478 0.014388459 -0.05098428 -0.1019608
-0.17139664 -0.03292004 0.04330389 -0.027206238 0.17272122 -0.030094475 0.11194051 0.116148174
0.06460875 -0.23067723 0.13180701 -0.034146175 0.019468796 -0.15246801 0.13106087 -0.08949649
-0.17079267 0.027282164 0.05998107 0.2069037 -0.058584943 -0.021555064 -0.06754696 0.057285618
0.16904014 0.11897047 0.17552893 0.058675915 -0.03085307 -0.05185741 0.13081461 0.078701966
0.0759145 0.120065615 -0.12836559 -0.11590522 -0.006865489 0.01780132 0.12666294 0.19089936
0.108770385 0.14800417 -0.016077029 0.13514447 0.119432926 -0.19252315 0.037738375 -0.058491714
-0.023309302 -0.037013818 -0.046177614 0.079460576 0.16265891 -0.10231546 0.121503256 0.15199555
-0.024792217 -0.17319022 0.043952372 0.08541923 -0.08228792 0.039152224 -0.1575899 0.06995931
0.16087297 -0.09865957 -0.02759936 0.056340344 0.11246078 -0.01931078 -0.1576693 0.08852643
0.13035616 0.10597545 -0.08468829 0.17224175 -0.07157169 0.16839898 0.1675758 -0.016469762
0.022334078 -0.0070216446 -0.15336008 0.11693321 0.11285919 0.012312056 -0.08569843 0.1824529
-0.07269077 0.1691721 0.054987874 -0.05147576 -0.15965246 -0.13069789 -0.05995467 0.082333915
-0.18149681 0.15859029 -0.00976035 -0.09834427 0.08527365 0.025187258 -0.017567322 -0.01760998
0.1016231 -0.1700398 0.024874853 -0.10041797 0.1127474 -0.0065089115 0.015547208 -0.014102928
-0.15638275 0.074468486 -0.12363445 0.16632386 -0.12785567 0.06874759 -0.079444245 0.065003596
0.073606625 -0.16259341 -0.12608252 -0.05273358 0.042872593 0.033319425 -0.01236673 -0.08661981
-0.102549195 0.08258825 0.16964015 0.1078495 0.010432961 0.20615178 -0.16754428 0.05252257
-0.058376152 0.06299736 -0.10991719 0.0036371658 0.18937282 0.08500573 0.072217435 0.036925342
0.1578979 0.1350514 -0.12536709 0.058317304 -0.00077974965 0.016951548 -0.03676705 0.14898202
0.13240851 -0.12129602 -0.11181468 0.05116561 0.008249855 0.03080292 0.09920366 0.014158057
0.10804972 0.071948946 -0.038882148 -0.15355963 -0.16345723 -0.056268137 -0.11128929 0.0147455605
0.061256934 -0.08047037 -0.048319936 0.095638976 0.057956606 0.15924191 -0.03901507 0.055190694
0.096913345 -0.017263176 0.18117253 0.15886396 0.14992447 0.03520802 0.12208234 -0.00330962
0.08683826 0.15749788 0.009623541 0.0616002 0.1472004 -0.11562857 -0.097971015 -0.034389503
-0.06354608 -0.030810153 0.014444864 0.07597997 -0.08495756 0.1822728 0.04159118 -0.03214959
-0.117755316 -0.13681395 0.024583543 0.046869934 -0.12989545 0.025235534 0.102689914 -0.13865444
0.16520086 -0.054262944 0.14637356 -0.03963708 0.002344432 -0.027225614 -0.020039877 0.023479098
-0.15945113 0.033326775 0.10742953 0.16794503 -0.063190006 -0.17080955 0.019857774 0.039258998
-0.05806674 -0.08202821 -0.17176445 -0.04153992 0.16078767 -0.0031629254 -0.1675802 0.1374638

bias f4 [10]
00000000: 3f2e a2bd 13a4 30bd 9bee 1ebd b6ff 4e3d
00000010: 6551 abbb 69de b0bd 75e3 553c 5c34 b7bd
00000020: 79cd 773d 4573 be3d
-0.07918977 -0.043125223 -0.03880177 0.050536834 -0.005228209 -0.08636171 0.013054718 -0.08945534
0.06049869 0.0929933
